renewen_model/model.pth (torch, 213970 bytes, 9 tensors)

lstm.weight_ih_l0 f4 [256, 9]
000000 f3 57 b6 3e 89 44 70 3f 00 2f 52 bf 83 40 6b 3e
       0.35613975 0.93854576 -0.82102966 0.22973828
000010 8f 4d 50 bf f4 28 16 be 4b d6 0b 3d 1a 67 29 3e
       -0.81368345 -0.1466406 0.034139913 0.16543236
000020 a4 61 2b 3e 90 e3 c7 bf 6c 1c 8d 3f 98 c6 75 3e
       0.16736466 -1.5616322 1.1024299 0.24001539
000030 e3 30 e0 be ee c3 71 3d 57 3e 5c bf 62 c4 38 3e
       -0.43787298 0.059024744 -0.86032623 0.18043664
000040 50 9c de be 3e f7 00 3d 4d a7 2d 3e fd 39 ea be
       -0.43478632 0.03148579 0.16958351 -0.45747367
000050 0d 2d 1c bd 61 b5 94 bc 80 b9 5b bd a2 ba bc bd
       -0.0381289 -0.018152894 -0.053643703 -0.09215285
000060 de 8f b7 be 76 13 91 be f8 ee c3 be 18 60 a9 be
       -0.3585195 -0.2833516 -0.38268256 -0.33081126
000070 c4 d2 38 c0 58 fe d1 bf 89 48 0b bf 3b 5d fa be
       -2.887864 -1.6405745 -0.54407555 -0.48899254
000080 d3 50 08 3f 7f 44 dc 3d 54 88 34 3f 5d 43 05 be
       0.5324833 0.10755252 0.7052052 -0.13013978
000090 f1 89 51 be 1e 29 d8 3d 5b 8d 28 be fa d9 f6 bd
       -0.20462777 0.105547175 -0.16460173 -0.120532945
0000a0 94 a8 96 be aa 67 b3 bf 80 02 d2 bd 4f 04 d3 3f
       -0.2942549 -1.4016011 -0.10254383 1.648569
0000b0 41 19 c3 be c9 16 e9 3e 3e cb ec be 81 e8 de bf
       -0.38105205 0.45525196 -0.4624881 -1.7414705
0000c0 93 0e 75 3e 86 19 02 bf ae d9 dd bf 46 76 31 bf
       0.23931341 -0.50820196 -1.7332056 -0.69321096
0000d0 6c 17 bd be d1 da b2 be 51 95 a1 bf a0 86 fe be
       -0.36931932 -0.3493257 -1.2623693 -0.49712086
0000e0 14 e0 f7 be ac 07 de 3e 25 7a 98 3e d6 10 58 bf
       -0.48413146 0.43365228 0.2978069 -0.8440069
0000f0 40 c6 13 be 60 03 b3 3e ab 95 61 be 91 75 ad be
       -0.14431095 0.34963512 -0.2202975 -0.3387876
000100 27 f0 c9 3f bf ca 72 be 60 b4 4e be 78 f7 f1 be
       1.5776414 -0.23710154 -0.20185995 -0.47259116
000110 c2 8c a8 3d 13 66 0d 3e 85 76 c6 bf 13 96 30 3e
       0.082299724 0.1380847 -1.5504919 0.17244749
000120 cc 5c 89 bf d4 9d 7a bf 0b 0f cd 3e fd a9 59 bf
       -1.0731444 -0.97897077 0.4005054 -0.85025007
000130 c5 87 10 be 14 29 9a 3f c3 af 44 bf 97 fa 22 3f
       -0.14114292 1.2043786 -0.7683069 0.6366362
000140 11 a9 5f 3e cf b7 3f bf 4c 3b 5d bf b4 47 a2 be
       0.21841837 -0.74889845 -0.86418605 -0.3169533
000150 d4 77 72 3d a7 f2 26 3e 90 98 81 3d fa b8 7c be
       0.05919631 0.16303502 0.06327927 -0.24679938
000160 c3 eb d4 3e dc 4d 2b bf 4d 61 c1 bd 85 f3 6a be
       0.41586122 -0.6691568 -0.09442387 -0.22944458
000170 6d d2 3f bf 25 47 97 3c 0b e7 31 bf e8 d0 fb be
       -0.7493046 0.018466542 -0.6949317 -0.4918282
000180 90 63 5b be eb aa b1 3f 88 f1 64 bf bd 15 78 bf
       -0.21424699 1.3880285 -0.8943105 -0.9690817
000190 ff 56 c0 bf 50 4a f5 3e 0e 1c 3d 3d ba 3d 3a bf
       -1.5026549 0.47908258 0.046169333 -0.7275044
0001a0 8a b1 3a be 90 88 0e bf 0a 11 cf 3f a8 2c 20 bf
       -0.18231788 -0.5567713 1.6177075 -0.6256814
0001b0 eb cd a4 be f3 53 0b 3f 9f aa 93 bf a8 48 a1 3d
       -0.32188353 0.5442497 -1.1536444 0.07875186
0001c0 84 23 84 bf 32 db 19 be 17 d8 bd 3e eb 5e c2 bf
       -1.0323339 -0.15025023 0.37078926 -1.5185217
0001d0 48 e4 e6 3e 44 ce ee 3e e0 41 d5 3f ca 40 ad be
       0.4509604 0.46641743 1.6660728 -0.33838493
0001e0 d8 03 b2 3e 05 6f 46 3f 8a 87 8d 3e 70 6a b8 be
       0.34768558 0.7751315 0.2764247 -0.36018705
0001f0 1f fa 82 3f 61 31 f0 bd 2f c1 13 bf 91 96 1e bd
       1.0232581 -0.11728168 -0.5771665 -0.03871781
000200 a0 fe 8d 3f 59 95 0d bf 5a 21 30 3d c2 38 cc 3f
       1.109333 -0.5530601 0.043000557 1.5954821
000210 e0 0f 68 bf 44 ca cc bd bf ea 00 bf 13 60 af bf
       -0.90649223 -0.099995166 -0.50358194 -1.3701195
000220 0f f5 22 bf e3 06 62 be d1 93 13 be c3 b6 1f 3f
       -0.6365518 -0.2207294 -0.14411856 0.6238825
000230 32 cd 8f 3f 3c ce 34 bf 47 84 b5 3f af d2 db be
       1.1234496 -0.7062719 1.4180993 -0.42934176
000240 94 39 d0 be 33 04 48 3e 5c e1 39 bd d2 73 cf bd
       -0.4066893 0.19532852 -0.045380935 -0.10129513
000250 1b ba d1 bd 04 dd 7d bf c9 8e 84 be 81 29 07 c0
       -0.10240575 -0.9916537 -0.25890186 -2.1119082
000260 1e 3e f7 be fe c6 ce bf f3 91 83 3b f3 cc d2 be
       -0.4828958 -1.6154478 0.0040152012 -0.4117199
000270 6a 90 0e bf 9a bb 08 3f 5f eb 5d 3e ee 86 35 be
       -0.5568911 0.5341126 0.21671818 -0.17727253
000280 39 92 4b bf ee 89 a7 be b7 b0 3f be 1a 2c ca 3d
       -0.79519993 -0.3272242 -0.18719755 0.09871693
000290 d9 45 2e 3f 80 76 82 3e 14 75 60 3d ec df 48 bd
       0.6807533 0.25481033 0.054799154 -0.049041674
0002a0 14 b7 53 bd b9 ef b6 3f dc 40 2a be dc 39 19 bf
       -0.05168827 1.4291908 -0.16626304 -0.5985391
0002b0 7a 1c 96 be fa 43 9c be 53 85 6c 3e c4 ae a9 3e
       -0.293186 -0.30520612 0.23097734 0.33141148
0002c0 71 44 ba 3e 81 37 9a be 57 cc b1 be 61 f7 2b 3d
       0.36380342 -0.3012047 -0.3472621 0.041983966
0002d0 00 d0 88 3d 70 26 59 be 92 4d cd 3e 0e 58 83 be
       0.06680298 -0.21206069 0.40098244 -0.25653118
0002e0 7e 10 67 3e 88 f3 39 bd 8a 55 80 bd 91 60 59 be
       0.22564885 -0.045398265 -0.06266315 -0.21228243
0002f0 3f 39 e0 be 7e 5d 8f be a6 e5 c3 3e 5f 8e 88 3e
       -0.43793675 -0.28001016 0.38261145 0.2667112
000300 6f e9 24 3e a6 cd 72 3e 6b 6c 25 3f 63 4b 88 bf
       0.16104673 0.23711261 0.6461856 -1.0648006
000310 50 99 d9 bf 77 66 77 3f 46 10 f0 bd f0 29 a8 3f
       -1.6999912 0.96640724 -0.11721854 1.3137798
000320 4f 10 8f be 19 64 e1 be 58 be d3 be f5 4e 03 be
       -0.2794213 -0.4402168 -0.41356158 -0.12823088
000330 07 83 df 3e c2 e3 e6 bf 48 36 00 bf 7e d7 83 bf
       0.43654653 -1.8038256 -0.50082827 -1.0300138
000340 f0 0c 39 be f6 0c 6e bf fd f1 dc 3c e7 7f 3e 3e
       -0.18071342 -0.92988527 0.026970858 0.18603478
000350 96 5a c5 3e 5c 6a 80 bf dd 26 9f bf bf 96 fa be
       0.38545674 -1.0032458 -1.2433735 -0.48943135
000360 8d 2e a2 be 11 d5 30 bf ea b2 d6 3d 22 08 82 3e
       -0.3167614 -0.69075114 0.10483344 0.2539683
000370 c6 09 89 3f 78 4e 1c 3f 83 1a 1c bf 6a fe ae 3f
       1.0706108 0.61057234 -0.60977954 1.3671391
000380 98 a6 f6 3e 8d 2a d5 3e cb 9b 60 bf 56 8e b7 3f
       0.48173976 0.41634026 -0.8773772 1.4340312
000390 8d 1c b2 be 15 c9 46 bf a4 c7 19 bd a9 45 3c 3e
       -0.34787408 -0.77650577 -0.037543908 0.18385948
0003a0 d3 63 bc bf dd 42 54 be 0d a2 47 bf 8e e7 a7 bf
       -1.4717964 -0.20728631 -0.77981645 -1.311754
0003b0 38 5d 02 bf 38 d2 a5 bf 08 27 53 3e 0d dc 5f be
       -0.5092349 -1.2954779 0.20620358 -0.21861286
0003c0 ee 99 0b 3e b1 f4 b7 3c a6 7d b2 bd 2b 3e 8f be
       0.13632938 0.022455545 -0.08715372 -0.27977118
0003d0 2c ef c4 be e6 dc dc 3d c7 65 a9 bd c8 44 fb 3d
       -0.38463724 0.107843205 -0.082713656 0.12268978
0003e0 ff 38 2d bf c7 bd fd be bb 26 da bd 26 c5 fc bf
       -0.67665094 -0.4955885 -0.106519185 -1.9747665
0003f0 60 a9 b3 bf 09 bb fa 3c e1 a8 10 be dd 6a 1a bf
       -1.4036064 0.030606763 -0.14126922 -0.6031931

lstm.weight_hh_l0 f4 [256, 64]
000000 d0 c0 7e be 3a 30 3d bd 82 6e 8f be b3 58 45 bf
       -0.2487824 -0.04618857 -0.28013998 -0.7708847
000010 60 be be 3c 74 d3 58 be 08 c2 1c bf 57 b9 0b 3f
       0.023284137 -0.21174413 -0.6123357 0.5457968
000020 59 08 d9 be f0 23 05 3e b7 e1 82 3e 10 1f f0 be
       -0.4238918 0.1300199 0.25562832 -0.468987
000030 c6 45 5d be bd c0 a8 3e 81 df 7d be 81 04 09 3f
       -0.21608648 0.32959548 -0.24792291 0.535225
000040 b7 90 0a 3f ff 5c ed 3e c9 5d 84 3e 5e ca 5c 3e
       0.5412707 0.46360013 0.25852802 0.21561572
000050 82 f8 9d 3e 87 05 d8 be c3 e6 a0 be e6 9c 28 3e
       0.3085366 -0.42191717 -0.31426057 0.16466102
000060 4b 80 92 bf 52 ca 63 3f cc 9b 34 3e ea 89 18 3f
       -1.1445402 0.8898059 0.17637557 0.5958544
000070 f7 6b b8 3c e1 39 25 3f 66 d3 c1 3d 65 db a8 be
       0.02251242 0.6454144 0.09464149 -0.32979885
000080 f7 c9 fb bd 9a ee 39 ba 72 c2 95 be 70 fd 1c bf
       -0.12294381 -0.00070927443 -0.29249913 -0.61324215
000090 b4 46 8d be df 46 99 3e b3 f9 06 3e 79 b1 c3 bd
       -0.27593005 0.29936883 0.1318119 -0.095553346
0000a0 c8 64 3e bd 14 a3 97 3f 78 d1 88 be 9c 13 c5 be
       -0.04648283 1.1846642 -0.26722312 -0.38491523
0000b0 e2 49 43 3f 19 bc 6b bf 05 a6 83 be 79 95 b4 bd
       0.7628461 -0.9208389 -0.257126 -0.08817572
0000c0 b0 89 08 bf 4c 41 33 3f a2 32 42 be dd 0c 2e be
       -0.53335094 0.7002151 -0.18964627 -0.16997094
0000d0 ea 91 e6 3e 71 1e 33 3e d0 77 38 be cd d1 bb 3c
       0.450332 0.17492081 -0.18014455 0.02292719
0000e0 59 c5 89 be 78 a1 78 3e 01 06 88 be 1f 25 ed bd
       -0.26908377 0.24280345 -0.2656708 -0.11579346
0000f0 90 2d f7 3d f8 44 59 3e a1 a9 3e bf a2 e9 e0 3e
       0.12069237 0.21217716 -0.74477583 0.43928248
000100 fd 04 58 bf 15 3f 01 3f dd cc 85 bd 6d f8 02 bf
       -0.8438261 0.5048688 -0.06533215 -0.5116032
000110 89 94 02 3d 6b fd 5e 3f a9 78 a0 3e cc 8a a8 be
       0.031879935 0.87105435 0.31342056 -0.32918394
000120 33 87 cf 3e 1d 8b 51 bd c8 35 88 3e bd dd ea be
       0.40532836 -0.05115806 0.26603532 -0.45872298
000130 8e 63 5f bd d0 6a 31 3f 0f 96 3b 3d 1e 51 34 be
       -0.054538302 0.6930361 0.045797404 -0.17609069
000140 01 75 00 3f c9 3a c1 3b 6f 92 9e 3d f8 a8 33 bf
       0.50178534 0.0058969003 0.07742774 -0.701797
000150 a9 7a cd be ce e2 82 3e 5b 2b 17 3f 86 68 80 bf
       -0.40132645 0.25563663 0.5905053 -1.0031898
000160 cc a0 e7 be ad 43 75 bf be e8 19 bf 56 fe 93 3e
       -0.45239866 -0.9580639 -0.6012076 0.2890498
000170 00 65 c4 3d 5b b6 e3 be 96 09 06 bf 39 ca bc be
       0.09589577 -0.44475064 -0.52358377 -0.36873034
000180 73 38 ac bf d0 e0 42 3f 60 07 e1 be d8 5e da 3e
       -1.3454727 0.76124287 -0.4395094 0.42650485
000190 4d 29 f4 bd 5c 42 68 3f 8b 13 cd 3d 8a 66 f1 be
       -0.1192194 0.90726256 0.10013493 -0.47148544
0001a0 5f 64 db 3d 3d 72 e2 bd 3a 61 ea bd 9d 93 92 3d
       0.10712504 -0.110569455 -0.11444326 0.07157061
0001b0 b0 02 03 3f bb 78 1e 3f 1c 28 05 3e 2d 87 66 be
       0.51175976 0.6190297 0.13003582 -0.22512503
0001c0 2d ad 02 bf 28 72 9d be b5 7b 2f be b0 2b 2e be
       -0.51045495 -0.30751157 -0.17137034 -0.17008853
0001d0 b2 e1 a0 be 27 d1 ab 3d d6 39 04 bf 46 8f b8 3d
       -0.31422192 0.08389502 -0.5165075 0.09011702
0001e0 06 71 4f bf ab e0 24 3e 21 6f 96 be ff 2d 0d bf
       -0.81031835 0.16101329 -0.2938166 -0.5514831
0001f0 e4 50 c0 3e 89 7e a5 be 02 35 9e 3d 27 a2 21 bf
       0.37561715 -0.323231 0.07724954 -0.6313805
000200 54 33 24 bf 36 94 bb 3e ef a7 77 3e 3e 39 ef be
       -0.6414082 0.36636513 0.24185155 -0.4672336
000210 06 7f 2f 3e 30 fa 7f bf 9b e5 09 bf e8 cb 2e bf
       0.171383 -0.9999113 -0.53865975 -0.68279886
000220 5d ce c4 3e 17 65 a7 be 5f 69 31 bf f5 ed 3b bf
       0.38438693 -0.32694313 -0.6930141 -0.7340997
000230 d6 81 a1 3e 57 d6 e0 be fd a7 4c 3e 98 c6 eb 3d
       0.3154437 -0.43913528 0.19985957 0.11512488
000240 b0 21 88 3e 20 f9 03 3f 16 f5 bd bd bd 33 ea bd
       0.26588202 0.5155201 -0.09275262 -0.114356495
000250 7f f2 d2 3e d8 8e 11 3f c0 62 c9 be a1 fa 23 be
       0.41200635 0.5685859 -0.39333153 -0.16013576
000260 72 9d df be 44 0e 92 3f bd 2c 63 3e a0 84 1b bf
       -0.4367481 1.1410604 0.22185035 -0.60749245
000270 9a 45 9e 3f 71 5a be bd f2 51 47 3f 3a 3b 58 be
       1.2364991 -0.09294594 0.77859414 -0.21116343
000280 44 77 c7 be d3 0f 88 3f 42 d8 e2 3e 22 1d 6d 3f
       -0.3895818 1.0629829 0.44305617 0.9262258
000290 6e 59 a8 3d 5a 44 85 3f 65 36 ac 3d fa a2 00 be
       0.08220182 1.0411484 0.084088124 -0.1256217
0002a0 a3 ec 4c 3f 01 02 14 3e 6c 63 b6 be 49 b1 1a 3f
       0.8004858 0.1445389 -0.35622728 0.60426766
0002b0 d3 5f 0d 3e a8 67 42 3f 21 c1 ea 3e d3 9a 05 bf
       0.13806085 0.75939417 0.4585047 -0.5218937
0002c0 ec 62 4f bc bb b3 26 be 92 be 4a be af f7 29 bf
       -0.012657862 -0.16279499 -0.1979926 -0.6639356
0002d0 f3 41 75 be 15 64 3b bd 49 13 28 3e 93 18 5a 3e
       -0.23950939 -0.045749743 0.16413607 0.21298437
0002e0 f9 ba c7 3e 61 89 75 3d b6 24 6f bf f9 54 1d 3f
       0.39009836 0.059945468 -0.9341539 0.61457783
0002f0 66 e0 65 3e 10 d7 6c 3e 1c 7b 10 3e 5d 55 b3 bf
       0.22448882 0.23128915 0.14109462 -1.4010426
000300 25 52 6d bf 1e fe 15 bf 51 9a 08 3f 9e e6 33 bf
       -0.9270347 -0.5859088 0.5336047 -0.7027377
000310 f2 89 65 3e 1f da 9e be 66 d1 f5 be 9c 63 81 bf
       0.22415903 -0.31025788 -0.4801132 -1.0108523
000320 ea e1 36 bf 53 e3 8c 3e 61 f9 e2 be 09 83 e3 3d
       -0.7143847 0.27517185 -0.44330886 0.11108977
000330 63 71 81 3f c1 9e 1a bf 3c 68 9e 3c cf 17 9d 3e
       1.0112728 -0.6039849 0.019336812 0.30682227
000340 a5 e6 06 3d 82 34 21 3f 26 2d b1 be 49 1d 01 bf
       0.032934804 0.62970746 -0.34604758 -0.5043531
000350 1a a3 1f bf f3 15 66 bf 0c b1 a7 bd 41 5c f6 3d
       -0.6235825 -0.8987724 -0.08188066 0.12029315
000360 c5 94 54 bf 6b 13 4e bd 94 13 43 3f a6 d7 06 3f
       -0.83039504 -0.050311487 0.7620175 0.52672803
000370 61 44 75 3f 2f 85 c0 be 03 ea e3 be dc 91 03 be
       0.9580746 -0.3760161 -0.44514474 -0.1284861
000380 98 0e 7a 3e 0d f0 0d 3e 67 53 f3 bc 60 6d 6e 3d
       0.2441963 0.13861103 -0.029702855 0.058209777
000390 bb 3f 74 3e 10 6b 74 3e 42 34 c8 3e d3 f5 81 be
       0.23852436 0.23868966 0.3910237 -0.25382861
0003a0 ca fd 2e 3f 2a 5a 98 be 03 41 e2 3e dc c2 1a 3f
       0.68356 -0.2975629 0.44190225 0.6045358
0003b0 7c 45 89 3e e3 c4 e2 3e 03 8e 19 be 55 48 9d be
       0.26810825 0.44290838 -0.1499558 -0.30719247
0003c0 7c 51 6f be 5c 53 1a 3d 12 d9 34 3e 61 47 6f be
       -0.23370928 0.037677154 0.17660931 -0.23367073
0003d0 f3 12 e5 be 2f 04 40 3e ce 02 98 3e ca fe 16 3e
       -0.4474102 0.18751596 0.2968964 0.14745632
0003e0 22 5d 44 3d e3 6a 7d bf 13 15 6a bf 5b b0 86 3e
       0.04794038 -0.9899122 -0.91438407 0.26306424
0003f0 8a d7 88 bc 78 c5 8c 3e c9 51 68 bf 36 22 e3 3c
       -0.01670434 0.27494407 -0.90749794 0.027726274

lstm.bias_ih_l0 f4 [256]
000000 76 e6 02 bf 42 f5 96 be 0f 6a 5c be 32 3b 9f bb
       -0.51132905 -0.29483992 -0.21524833 -0.0048593516
000010 f2 7b 21 be 7b 48 0a be 74 63 ae bc 4b df 9b be
       -0.15769938 -0.13504212 -0.021287657 -0.30443797
000020 b8 01 23 bc 4e 08 2d bd 1b 71 fc be f0 7c ac be
       -0.00994914 -0.042244248 -0.49305043 -0.3368907
000030 62 07 01 bf 9c c8 3f 3f f4 fd 8c be 3e 03 cb bd
       -0.5040189 0.7491548 -0.275375 -0.09912728
000040 6c 95 ea be ee a8 3d 3d 8d 3d a2 bd 92 dc cc 3e
       -0.45817125 0.046303682 -0.07921896 0.40012032
000050 99 59 9a be f1 6e df bd 29 2d f9 be 5d e3 8f 3d
       -0.30146483 -0.10909832 -0.48667267 0.07025788
000060 c4 a9 bc 3e 71 dc 95 be 6b e2 4f 3d 95 8f bd bd
       0.3684827 -0.29269746 0.05075304 -0.09255902
000070 aa 09 c1 bd 00 c1 a2 be e8 2a 32 bd 8e fd a1 be
       -0.094256714 -0.31787872 -0.04349795 -0.3163876
000080 c3 3c c3 be 25 7c 27 bf 0c c9 c8 be 98 a2 85 3d
       -0.38132295 -0.65423805 -0.39215887 0.06525153
000090 15 fd cd be 97 24 3f be db b6 36 be f6 c2 25 be
       -0.4023215 -0.18666302 -0.17843191 -0.16187653
0000a0 60 c9 29 3d 98 b5 1f be eb 4c b3 bd 3c 50 ec be
       0.04145181 -0.15596616 -0.08754905 -0.46154964
0000b0 c5 d9 d7 be 96 36 d7 be c6 6c 51 bd ee 0b 36 be
       -0.42158332 -0.42033833 -0.051129125 -0.17777988
0000c0 4a 05 d3 be 3a e7 01 bf 7b ed ab 3d 35 ad 12 bf
       -0.41214973 -0.5074345 0.08394905 -0.5729554
0000d0 d5 e8 b4 be 6f 25 0f bd fe a7 aa be b1 c5 69 be
       -0.35333887 -0.03494781 -0.33331293 -0.2282932
0000e0 fc 41 71 bc 5f f9 f9 3d 9d 74 fc be f7 d7 b7 bd
       -0.014725205 0.12205767 -0.4930772 -0.08976739
0000f0 0f 32 9f be 8a 2b b5 be 2d a0 2d bf 38 2a f1 be
       -0.3109288 -0.3538478 -0.67822534 -0.47102523
000100 a4 4e 0a 3d 4e 5e 48 3e 05 4f d1 3e 0d 30 4a 3c
       0.033766404 0.19567224 0.408806 0.012340558
000110 d6 25 69 3e 34 14 23 3e ee a7 da 3c 7b ff cb 3d
       0.2276834 0.15925676 0.026691403 0.099608384
000120 82 dc 3c be 89 44 20 3e 63 a1 9e 3e cf 6c 0e 3f
       -0.18443492 0.15651144 0.30982503 0.5563478
000130 6c ac 68 be 7b d0 c6 be 02 e4 1d bd 48 dd 81 3a
       -0.22722024 -0.38830933 -0.038547523 0.0009907866
000140 ed f4 0c 3f f1 43 d0 3d 2d 17 72 3e c7 88 94 be
       0.5506123 0.10169209 0.23641653 -0.29010603
000150 b4 c5 02 3f dd 26 5a be 21 50 f7 bb 7b b1 bd 3d
       0.5108292 -0.21303888 -0.007547394 0.09262367
000160 ad bb 96 bd 08 6d f5 3e 29 56 9e 3e 91 98 fc bb
       -0.07360015 0.47934747 0.3092511 -0.007708617
000170 62 d2 26 3f 93 50 e2 3e fc 82 a3 bd 91 60 68 3e
       0.6516477 0.44202098 -0.07983968 0.22693087
000180 b3 7e 40 be f4 7f c4 bc 47 22 4a 3d 82 16 00 3e
       -0.18798332 -0.023986794 0.049349096 0.12508586
000190 da 09 93 3e 44 42 66 3e b4 d7 9d 3e d6 f5 58 3e
       0.28718454 0.22486216 0.3082863 0.21187529
0001a0 5a bd a7 3e c9 bb 86 bd 0b bf 44 3c 77 b5 9d bd
       0.3276165 -0.06578786 0.012008439 -0.07700627
0001b0 f6 52 45 bd 8b cf 52 be 15 28 85 ba 69 4e 3f 3e
       -0.04817482 -0.20586984 -0.001015904 0.18682255
0001c0 9e ef a0 3e a1 32 5b be c0 c1 60 3e 77 f2 9b 3e
       0.31432813 -0.21406032 0.2194891 0.30458423
0001d0 1c ac 95 3e 03 c8 00 3f a0 2d ab 3e b7 06 45 3e
       0.29232872 0.50305194 0.33433247 0.19240843
0001e0 a3 e0 9c 3e 64 9f d2 bd 2d a1 8d 3e 13 8e a4 bc
       0.30640134 -0.102843076 0.2766203 -0.020087278
0001f0 a6 b0 84 3e 9e 37 65 3d 0c 92 e7 3e 9b 4a 1b 3f
       0.25916022 0.055961244 0.45228612 0.60660714
000200 52 a1 cd 3e e1 a2 24 3d 1f 51 b3 be 02 1b 04 be
       0.4016214 0.040194396 -0.35022828 -0.12900928
000210 2d 68 4a 3e f8 b4 d1 3d 3f b7 74 3e a5 0e 8e 3d
       0.19766302 0.10239595 0.23898028 0.06936387
000220 9d d8 87 bd b2 bb 7e be 75 c4 7e be 93 09 9a 3d
       -0.066331126 -0.24876288 -0.2487963 0.075213574
000230 a5 8b e6 3e 75 05 7a bc 2f 52 26 be 15 ec 6c be
       0.45028415 -0.01526009 -0.16242288 -0.23136933
000240 40 bf 44 bd 81 a0 38 be 1b be b6 ba 47 46 9e 3d
       -0.048033953 -0.18029977 -0.0013942154 0.07728248
000250 6f 9b a0 bd af 88 06 be 30 93 1d 3e 93 47 c7 3d
       -0.078421466 -0.13138078 0.15388179 0.097304486
000260 c3 01 d9 3d d1 46 22 3e ec 30 0e be 76 ab 05 3d
       0.10596039 0.15847327 -0.1388585 0.03263422
000270 4b 1d 80 be 95 36 bf be 0f bf fa 3d b8 47 6a 3d
       -0.2502235 -0.3734633 0.12243473 0.057197303
000280 c3 d6 0f 3e b7 e6 a9 3e d6 af 9a 3e c3 6f 6b be
       0.14046769 0.33183834 0.30212277 -0.22991852
000290 84 a7 d0 be f7 2a 4f 3e 25 52 4e 3e 3e 2e 12 be
       -0.40752804 0.20231234 0.20148523 -0.14275452
0002a0 ca 0e 05 be e8 52 2f be 93 c8 dd bd 93 3e 5c 3e
       -0.12993923 -0.1712147 -0.10829272 0.21508245
0002b0 fb 27 b0 3d 62 e5 92 3e 43 3c f5 bd d0 5e 86 3d
       0.08601376 0.2869063 -0.11974385 0.06561053
0002c0 c9 ab 10 bd 25 19 98 be 31 b5 a1 3e 1d ec 26 3e
       -0.035320077 -0.29706684 0.3158355 0.16301008
0002d0 44 e7 14 3e 61 b7 3e 3e 92 11 68 bd 84 8d 30 3e
       0.14541346 0.18624641 -0.05665738 0.17241484
0002e0 c4 eb 87 3e c2 8f 2c bd 5b de 47 3d 20 35 14 be
       0.26547062 -0.042129286 0.04879604 -0.1447339
0002f0 8d ac 7b 3c e3 32 69 be ec dc 2e be 29 30 9c bc
       0.0153609635 -0.22773318 -0.17076463 -0.019065933
000300 91 02 7f be 1a 87 63 bd e2 92 2f be a2 a8 d4 3d
       -0.24903323 -0.055548765 -0.17145875 0.10383727
000310 58 57 18 3c d6 66 ef 3d 83 fa 33 be c5 1e 1e be
       0.009298168 0.11689536 -0.17576031 -0.15441425
000320 be 01 72 bd 9c 92 ae 3c c2 15 a8 be 75 7c 29 bc
       -0.059083693 0.021310143 -0.328291 -0.010344614
000330 d4 23 ce be 2c 48 1d 3f e6 d3 a7 be e8 3a 70 be
       -0.4026171 0.6143825 -0.32778853 -0.23459971
000340 12 3a c0 3d 72 e4 53 3e 6d a6 9e be 4a a5 11 3f
       0.09386076 0.20692614 -0.30986348 0.56892836
000350 71 75 c1 3d 90 2b 1b be 53 d1 f9 be 8c c4 8b 3d
       0.09446228 -0.15153337 -0.48792514 0.06824598
000360 b8 90 42 3e 9c 07 89 be 00 54 98 bd 22 da 00 3d
       0.19000518 -0.26763618 -0.07437897 0.031458028
000370 64 06 b6 bd ae 0e 33 bd b0 71 74 bd c8 b2 63 be
       -0.08887938 -0.04371517 -0.059678733 -0.22236168
000380 33 1a 6b be 0b 4b f5 be 7b 5e d2 be fb a2 b3 bd
       -0.22959213 -0.47908816 -0.41087708 -0.087713204
000390 2e 04 ed bc 2f 8e 0c be b3 a8 9e bd 18 be 40 be
       -0.028932657 -0.13726114 -0.077470206 -0.18822515
0003a0 b3 62 c3 bd 0d a9 66 bd ca d1 0d be 85 4b 70 be
       -0.0954031 -0.056313563 -0.1384956 -0.23466308
0003b0 07 b0 ac be cc 8d 85 be 75 57 a8 bc b2 fc 2a be
       -0.33728048 -0.26084745 -0.020549515 -0.16697958
0003c0 6a 5e c5 be 33 92 ce be 1e 81 a8 3c 19 bc 62 be
       -0.38548595 -0.40345916 0.02056938 -0.22142066
0003d0 6c b6 f3 be 87 35 cd 3d fb 04 f9 bd f3 c0 41 be
       -0.47600114 0.10019975 -0.12159153 -0.1892126
0003e0 8d de 36 be d2 02 d2 3e 49 c6 29 be cc 19 49 bd
       -0.17858334 0.41017777 -0.16579546 -0.049096867
0003f0 55 0d ac be 1a 86 85 bd 83 3f 29 be c3 a1 55 bd
       -0.33603922 -0.065197185 -0.16528134 -0.05215622

lstm.bias_hh_l0 f4 [256]
000000 c8 9e 2a bf ea e6 a4 be e0 c7 ef bd 49 30 17 3d
       -0.6664853 -0.32207423 -0.11708045 0.036911283
000010 9b 1c 98 be 27 28 40 be d5 2a e2 3d 81 40 8a be
       -0.29709324 -0.18765317 0.11043326 -0.27002338
000020 34 18 23 bd 1d 68 0d bd 3a 1a eb be 90 52 04 be
       -0.039818004 -0.03452312 -0.45918447 -0.1292212
000030 5d d1 07 bf 84 10 45 3f 39 67 7f be 69 72 0b be
       -0.5305384 0.76978326 -0.2494172 -0.13617863
000040 fa 3a bb be f5 b0 f2 3d 9b 5e c6 bd 68 c4 6f 3e
       -0.36568433 0.11850158 -0.09686013 0.23414767
000050 da 9d 80 be 5f 85 87 bb 1d 4a e6 be 8f 3d 29 3e
       -0.2512043 -0.004135772 -0.4497842 0.16527389
000060 d6 2d 4c 3e 64 14 f7 be 88 ca 7a 3d 17 65 a2 be
       0.1993936 -0.48257744 0.061228305 -0.3171775
000070 d9 e1 25 be a8 f5 3e be 21 33 94 bd 11 74 4e be
       -0.16199435 -0.18648398 -0.072363146 -0.20161463
000080 23 7a 91 be 98 51 ea be 29 81 06 bf 6e d6 e4 bd
       -0.28413495 -0.45765376 -0.5254083 -0.11173712
000090 8f ad cb be 6b cd 08 be 2a 1d a2 be ea 83 16 be
       -0.39780852 -0.1335961 -0.31662875 -0.14698759
0000a0 a4 ce 0b be 4b 22 85 be 90 90 4a 3d f4 da ab be
       -0.13653046 -0.26002726 0.04945427 -0.33565485
0000b0 a7 4d 87 be 22 45 b3 be 61 4e d7 3d 6f 44 84 be
       -0.26426432 -0.35013682 0.105129965 -0.2583346
0000c0 98 7f b7 be 3a af e9 be 5a de a1 ba bc 15 e3 be
       -0.35839534 -0.456415 -0.0012349591 -0.4435252
0000d0 7b d5 c6 be 45 cc 0f bd 2e fe e8 bd f0 57 9b be
       -0.38834748 -0.035106916 -0.11376606 -0.30340528
0000e0 58 ff 1b be da f5 c0 3d cd ef 0c bf 23 ba 3e bd
       -0.15234125 0.094218925 -0.55053407 -0.046564233
0000f0 db 49 84 be eb 0e 25 be 1a 4b 02 bf 98 f3 d4 be
       -0.25837597 -0.16118972 -0.50895846 -0.41592097
000100 ea af 64 3e 60 0e 18 3e 39 3f c2 3e f0 ba 4b 3e
       0.22332731 0.14849234 0.3793886 0.1989553
000110 95 37 9e 3e 9a d9 1f 3e f9 4a 3a 3e 44 59 70 bc
       0.3090178 0.15610352 0.18192662 -0.01466972
000120 61 bc b2 3a 0d d8 c9 3d 60 02 9f 3d bd 67 1e 3f
       0.0013636464 0.098556615 0.07764125 0.6187704
000130 56 7f bf be 47 d0 9c be 2e e0 fb bc 53 b6 17 bb
       -0.37401837 -0.30627653 -0.030746546 -0.0023149445
000140 18 5c d9 3e f1 63 bf 3d 08 cd a3 3e e7 e7 25 be
       0.42453074 0.09345234 0.31992364 -0.16201745
000150 50 80 08 3f e9 06 a3 3c 3c a9 89 3d 7f 62 c3 3d
       0.5332079 0.019900756 0.06721732 0.09540271
000160 5b a3 da bd c6 f7 c3 3e 3f 87 87 3e 6d 12 19 3e
       -0.10675689 0.38274974 0.26470372 0.14948435
000170 88 d6 0a 3f 5d f0 f8 3e 52 5e 38 be a9 43 3c 3e
       0.542336 0.48620883 -0.1800473 0.18385185
000180 02 be fe bd fc c0 c4 3d f8 e7 b3 3d 6d cf 13 3e
       -0.12438585 0.09607121 0.08784479 0.14434595
000190 7d dc 48 3e 88 84 24 3e 7f f1 07 3f 1e d5 87 3e
       0.1961536 0.16066182 0.5310287 0.26529783
0001a0 58 d4 89 3e 76 35 c3 bd 26 be a0 3c 9f dd 12 3e
       0.26919818 -0.09531681 0.01962192 0.14342354
0001b0 dc 30 1f bd ca d3 80 be 99 7a 19 be a5 13 12 3e
       -0.038864955 -0.25161582 -0.14988174 0.14265306
0001c0 c9 5b 0e 3e 74 fe 02 be 18 95 c9 3e 1f fe c2 3e
       0.13902201 -0.12792379 0.39371562 0.38084504
0001d0 b6 fb 5f 3e bc b0 fa 3e 44 60 10 3f 79 b7 37 3e
       0.21873364 0.48962963 0.5639689 0.17941083
0001e0 9b 59 b3 3e 96 55 da bd 47 ca 8e 3e fd 2a f5 3c
       0.350293 -0.106608555 0.278887 0.029927725
0001f0 a7 48 2e 3e 3e 9b 06 3e 0a 27 e1 3e 1f f1 0b 3f
       0.17019902 0.13145158 0.43975097 0.54664797
000200 7c 4b 89 3e cd 9d fc 3c ed af a4 be c8 9d 01 be
       0.26815403 0.030836964 -0.3216547 -0.12657845
000210 64 6d 93 3e 61 47 f2 3b f1 64 84 3e 43 24 06 3e
       0.28794396 0.007393763 0.25858262 0.1309977
000220 1b c0 07 3e 34 6a a3 bd e5 6a 31 be 26 d8 e7 3d
       0.13256876 -0.07979241 -0.17325933 0.11320524
000230 d5 d4 8f 3e 3f a7 69 bd 59 a1 36 be ab ef a2 bd
       0.28092065 -0.057044264 -0.17834987 -0.07955869
000240 e4 2c 59 3d db 52 16 be 3a a3 55 bd 32 bd 6e 3e
       0.053021327 -0.14680044 -0.052157618 0.2331436
000250 55 2d d6 bc cf 33 ee bd 40 a4 34 3e 5e 6e 3c 3e
       -0.026144663 -0.116309755 0.17640781 0.18401477
000260 df 0a 31 3d f3 4c 47 3e a6 39 48 be 5a db ff bd
       0.043223258 0.19462948 -0.19553241 -0.1249301
000270 17 ba 22 be 81 83 ac be fc cb b7 bc 89 b4 57 bd
       -0.158913 -0.3369408 -0.022436135 -0.052662406
000280 d4 13 ad 3d b4 59 6a 3e b9 ad e5 3d 85 6b 54 be
       0.084510475 0.22885782 0.112147756 -0.2074414
000290 62 5a c0 be 31 ba 44 3e dd 4f aa 3e 5b 16 e5 bc
       -0.37568957 0.19211651 0.33264056 -0.027964761
0002a0 f4 7b 57 be 7d 83 f9 bd 7b af b5 bd d5 8b 37 3e
       -0.21043378 -0.121832825 -0.08871361 0.17924435
0002b0 38 66 0f 3d d0 96 39 3e 85 8c 1a be 1c c6 97 3d
       0.035009593 0.18123937 -0.15092666 0.07410833
0002c0 ca 48 e2 bd f2 6f 5d be 71 1e ae 3e 17 19 39 bd
       -0.1104904 -0.21624735 0.340076 -0.045189943
0002d0 3b 1b 9f 3e 2d 4e 8c 3e 17 e3 c2 bd 70 38 fa 3d
       0.31075463 0.27403393 -0.0951597 0.12217796
0002e0 57 60 c3 3d 70 e6 8e 3d ed a6 07 be 9d 8d 5f 3b
       0.0953986 0.06977546 -0.13247271 0.0034111508
0002f0 f1 3f 43 3e f1 80 08 be 46 5a 30 be 2e 21 83 bb
       0.1906736 -0.13330437 -0.17221937 -0.004001758
000300 09 32 e6 be 17 e1 27 be 51 ef a6 be 70 9d 93 3d
       -0.4496005 -0.16394459 -0.3260446 0.07207763
000310 ee 8a 3d 3d 5c f3 15 bd 09 9e 3e be 10 3c 16 be
       0.04627507 -0.03660904 -0.18614973 -0.1467135
000320 cf 51 a5 bd ca 84 8f 3d 8e 6e ca be b4 d2 36 bb
       -0.080722444 0.070077494 -0.39537472 -0.0027896585
000330 66 20 e1 be 7a 6b 29 3f ba 2c a5 be 60 b0 64 be
       -0.4397003 0.6617962 -0.32260686 -0.22332907
000340 cc f9 db 3d fc b9 10 3e 87 f3 d4 be 84 30 f7 3e
       0.10741004 0.14133447 -0.41592047 0.48279202
000350 c8 5f dc bd 52 6b 38 be 31 d7 d4 be be 03 44 3e
       -0.10760456 -0.1800969 -0.41570428 0.19142053
000360 dd c4 ff 3d db d4 cf bd 51 24 f3 bd 88 64 d9 bd
       0.124887206 -0.10148021 -0.11872161 -0.10614878
000370 65 08 20 3e d5 9f e3 bc 62 0f 0d be 08 70 74 be
       0.15628202 -0.027786175 -0.137754 -0.23870862
000380 e9 69 23 be 71 6f ad be 51 2c 50 be da 04 0c 3d
       -0.1595837 -0.33874086 -0.20329405 0.034184314
000390 f8 47 22 be ca cd 91 bd 9e ef 34 be 0a dc 2f be
       -0.15847766 -0.07119329 -0.17669532 -0.17173782
0003a0 63 2a bd bd 17 9a 7e bd 6d 49 c4 bc ff 88 46 be
       -0.092366 -0.06215867 -0.023960793 -0.19388197
0003b0 5c 91 87 be 20 01 9b be 99 af eb bb f3 c6 9f bd
       -0.26478088 -0.30274296 -0.0071925637 -0.078016184
0003c0 f6 6d c4 be 91 30 e1 be ed c1 98 3d fd 68 5b be
       -0.38365144 -0.43982366 0.074588634 -0.21426769
0003d0 42 73 cc be 01 be a1 bc 7b b6 90 be bb c1 5f be
       -0.39931685 -0.019743921 -0.28264222 -0.21851246
0003e0 d6 ee ce bd 60 1d a5 3e 46 18 b4 bb fa 4b 60 bd
       -0.10104148 0.32248974 -0.0054960577 -0.054759957
0003f0 1a 39 ee bd 11 df 9d 3c ba 05 a1 be a2 a6 b9 bd
       -0.11631985 0.019271405 -0.31449682 -0.09064986

lstm.weight_ih_l1 f4 [256, 64]
000000 3a 20 37 3f cc 8f b5 be 2a 76 29 bf e1 b7 da be
       0.7153355 -0.3546127 -0.6619593 -0.42718413
000010 92 ff a4 3f 9a 38 cd be 87 3a ad bc ad e3 02 3f
       1.2890494 -0.40082246 -0.021146072 0.51128656
000020 af f0 b1 be 87 9a 2f 3e c8 66 37 bf 53 a0 25 3e
       -0.3475394 0.17148791 -0.71641207 0.1617444
000030 2a 27 df 3e 6b 8d 23 3f 80 5d f4 3e dd e8 13 3e
       0.43584567 0.6388766 0.47727585 0.14444299
000040 7e 0d ec bd 41 1b a4 bf a2 09 5f 3f 66 50 33 3f
       -0.11526011 -1.2820817 0.87124074 0.70044553
000050 a3 e1 e2 3e 91 59 3b 3f ca 7b e9 3f 74 81 53 3e
       0.44312772 0.7318354 1.8240902 0.20654851
000060 b5 5a 0d bd 13 96 45 3e 9b d8 bb be f1 7b 9e 3e
       -0.034510333 0.1929553 -0.36688694 0.30953935
000070 9d 3a fa 3e ce a2 8b bf 65 a4 34 3c 54 7d 8f bf
       0.48872843 -1.0909059 0.011025523 -1.1210122
000080 48 e2 c0 3e 78 f3 79 3f f7 5f 41 3e ed 31 32 3c
       0.3767264 0.9763713 0.18884264 0.010876161
000090 5b ba 10 bf a1 a1 4c 3f 71 9d 89 3f a8 3d 7a 3f
       -0.56534356 0.79934126 1.0751172 0.9775033
0000a0 96 55 79 3f 60 2a ff be 48 e6 66 bf 90 13 04 3e
       0.9739622 -0.49837017 -0.9019513 0.12898088
0000b0 6c 73 2b bf 3a b4 53 3f 03 2b 00 bf d7 e1 be 3c
       -0.66972995 0.8269688 -0.5006563 0.023301048
0000c0 f1 e5 b7 be fc 1d 9d be d5 5b 0b be 3f b6 ab 3f
       -0.3591762 -0.3068694 -0.1360925 1.3414992
0000d0 db 78 98 3f 3f af 5a 3f 48 9a 39 bf ef fa 74 bc
       1.1911882 0.85423654 -0.7250104 -0.014952405
0000e0 97 43 dc bf be db 64 3d 11 95 8f 3e f4 34 23 bf
       -1.7208127 0.055873625 0.28043416 -0.63752675
0000f0 43 6f ef bf 1e ed a2 3f c0 17 50 be 99 cf 87 bf
       -1.8705829 1.2728612 -0.2032156 -1.0610229
000100 9b ba 51 bf 5f a9 35 bf 2a 9a cd 3d c5 2b 1a be
       -0.8192536 -0.70961565 0.1003917 -0.15055759
000110 84 63 57 40 0b b3 49 bf f4 26 c7 3f 48 3f 2f bf
       3.365449 -0.7878882 1.5558763 -0.68455935
000120 49 8b 75 bf bd be 1e bf 57 aa 1c bf 88 33 9f 3f
       -0.9591566 -0.62009794 -0.6119742 1.2437601
000130 ab 3a 2e 3f 13 88 2b 40 ec b8 4a be 97 6b 7f ba
       0.6805827 2.6801803 -0.19797105 -0.000974351
000140 a7 01 65 3f ab d6 2f c0 ed 24 4a 3f b8 db 43 40
       0.89455646 -2.7474773 0.78962594 3.0602856
000150 39 34 65 3e c7 a2 7d 3f e1 06 69 3f 6c 7f 88 bc
       0.22383203 0.99076504 0.9102612 -0.016662322
000160 e8 f9 c0 be f0 15 07 c0 b2 83 1f bf 92 82 15 3f
       -0.37690663 -2.110714 -0.62310326 0.5840236
000170 df 2b 82 bf c7 0f 3f be 73 66 dd 3e ea ee 84 bf
       -1.0169638 -0.18658362 0.43242225 -1.0385411
000180 a0 5b 0d bf d8 4c 92 3f e2 7e 17 3f 60 a1 a6 bf
       -0.55217934 1.1429701 0.5917798 -1.3017998
000190 03 bb 48 bf b8 71 a4 3f dd 81 8d 3f f7 72 1b 3f
       -0.7841036 1.2847204 1.1055256 0.607223
0001a0 c7 c8 78 3f 27 fe 68 bd 37 16 b0 bf 0d 11 1c 3f
       0.9718136 -0.056883004 -1.375678 0.6096352
0001b0 6c 16 54 bf 33 1d 27 3f 1a 2b 26 3f 87 2f 78 3f
       -0.82846713 0.6527893 0.6490952 0.9694752
0001c0 f9 d7 90 bf d5 fd 2a 3f ae 07 0f 3f 0b 2d 9e bf
       -1.131591 0.66793567 0.55871093 -1.2357496
0001d0 c2 57 67 3e cb c3 8a 3f 21 32 3f bf 1e df 73 3f
       0.2259207 1.0841001 -0.74685866 0.95262325
0001e0 d8 e4 87 bf a9 38 2a 40 3c 6a 96 3e db e6 ee 3c
       -1.0616713 2.6597083 0.29377925 0.029162815
0001f0 d7 41 fd be 06 ea 9a bf b2 14 4b bf 87 1c d5 be
       -0.49464294 -1.2102668 -0.79328454 -0.41623327
000200 af 79 71 be 92 5f 7a 3e 82 5a c1 bd e5 5c 25 bf
       -0.23581575 0.2445052 -0.09441091 -0.6459487
000210 91 dc 0c 3f 9f 99 16 bf be 06 40 3e 6e 8e 67 bf
       0.5502406 -0.5882816 0.18752572 -0.90451705
000220 8a f4 05 bf ab 97 fa 3d 20 92 07 3e 49 6d 37 3f
       -0.5232626 0.122359596 0.13239336 0.7165113
000230 ea 45 20 3e 4e 15 29 3e 03 5c 8a 3f d0 b9 1d 3e
       0.1565167 0.16512033 1.080933 0.15402913
000240 56 5a 11 3d a8 cf 7f be 48 8e 22 bf d7 f7 9e be
       0.03548654 -0.24981558 -0.63498354 -0.31048462
000250 6c de 2f bf 10 a5 8b 3e 3f c6 8f 3e 25 10 4e 3f
       -0.68698764 0.2727437 0.28080937 0.80493385
000260 dc d2 4d bf b5 ec 99 3e 41 48 88 3f 7e 1f 92 3f
       -0.8039987 0.30063406 1.064705 1.1415861
000270 3e a5 52 3f ab 73 51 be 4f 22 0f bf a7 0c 1c 3e
       0.8228339 -0.2045428 -0.55911726 0.15239201
000280 18 83 1f bf 15 f4 50 bf 2c 70 42 bd 8e 92 23 3d
       -0.6230941 -0.8162244 -0.047470257 0.039934687
000290 4f 01 30 bf 67 c4 cb 3e 19 19 0e be e6 f8 77 3f
       -0.68751997 0.3979828 -0.13876761 0.96864164
0002a0 ff 8a df 3e 2d fb 27 bc 6f 3f 36 3f 64 ca 16 bf
       0.43660733 -0.010252756 0.7119054 -0.58902574
0002b0 21 4f 9c bf dd 60 c6 be 25 6b 62 bf 6e 49 4a 3e
       -1.2211648 -0.38745776 -0.8844474 0.19754574
0002c0 11 c8 34 bf 0c 7c b0 be 12 81 f6 be 06 83 8d be
       -0.7061778 -0.3446964 -0.48145348 -0.27639025
0002d0 2b 60 6c 3f 23 d2 92 3f 52 9b d9 be 79 26 5b 3f
       0.9233424 1.1470379 -0.42501312 0.8560558
0002e0 fb aa 8a bf c8 e1 d7 3e d7 bb 14 be 12 15 dd be
       -1.0833429 0.42164445 -0.1452478 -0.43180138
0002f0 4f 40 20 bf 8e ab 5c 3f 91 6d 9c bf e1 a3 ba 3e
       -0.6259813 0.8619927 -1.2220937 0.36453155
000300 8a 0d c2 3e 82 7d 74 bf 15 78 0c 3f be a9 ed be
       0.37900954 -0.9550401 0.5487073 -0.46418566
000310 42 fd 70 3e eb 81 18 3e ca 08 84 3e ff 40 38 bf
       0.2353411 0.1489331 0.25787956 -0.71974176
000320 83 58 b4 be bd 06 b5 bf 2f 3b 24 be 57 1d bf bd
       -0.3522378 -1.4142681 -0.16038202 -0.09331768
000330 5d dd 80 3e a8 bc 04 3f 18 16 95 3f f4 3e 13 bf
       0.25168887 0.51850367 1.1647367 -0.57517934
000340 28 9c 8a 3e 62 11 83 bd 48 b5 39 bf 09 df 10 3f
       0.27072263 -0.063998 -0.7254224 0.56590325
000350 5f 86 6a bf b6 91 fd be 42 07 bb 3e 09 f8 8e bf
       -0.91611284 -0.4952523 0.36528975 -1.1169444
000360 84 9c 95 bf 09 cc 0e bf eb 73 4b bf bf 2c c4 3e
       -1.168839 -0.5578008 -0.7947375 0.3831539
000370 cf 06 dc 3e 8a 67 88 3e 4e b0 9b be cd 1d 15 bf
       0.42973945 0.26641494 -0.30407947 -0.582486
000380 9e 37 1d 3f 41 0d 55 be 43 9d cd 3d 85 c8 7b 3f
       0.6141299 -0.20805837 0.10039761 0.98352844
000390 c6 92 1e bf a7 46 1c be 10 94 21 3e fd 26 82 be
       -0.6194271 -0.15261327 0.15779138 -0.2542037
0003a0 46 9c 7d 3c 1c 99 b2 3d 27 e2 83 3f 3d d8 0e be
       0.015479153 0.087206095 1.0303391 -0.13949676
0003b0 0f 4c 94 bf a2 0f b6 3e 63 ff a2 3f 0e 95 47 bf
       -1.1585711 0.35558802 1.2734188 -0.77961814
0003c0 f5 d4 02 3f 8d 87 99 bd 19 17 10 bf 81 ad 82 3e
       0.51106197 -0.074965574 -0.56285244 0.25522998
0003d0 e7 d3 10 be 64 83 ed 3e 33 1f 73 be 27 8c 92 3e
       -0.14143334 0.46389306 -0.2374237 0.28622553
0003e0 18 3c a6 bf ae 20 5e bf ce a5 b5 3d 01 16 fd bd
       -1.2987089 -0.86768615 0.08869515 -0.123577125
0003f0 4e 08 c3 bf d7 2a 8e be 3a 59 ef be f6 51 56 be
       -1.5236909 -0.2776706 -0.46747762 -0.20929703

lstm.weight_hh_l1 f4 [256, 64]
000000 98 76 c5 be ae b0 41 3f 99 ba 6d be 59 7b f7 3d
       -0.38567042 0.75660217 -0.23215713 0.120840736
000010 fa 7f bc be 2b a0 49 bf c2 8a 62 3f dd 25 77 3e
       -0.36816388 -0.7876002 0.8849298 0.24135537
000020 c3 43 9a bf 32 13 a8 be 66 2e 4e bf 39 4d 97 bd
       -1.2051929 -0.32827145 -0.8053955 -0.07387776
000030 a8 f5 8a bf 2e 04 03 bf 9b c7 ca bf c3 fc ba 3e
       -1.0856218 -0.5117825 -1.5842165 0.36520967
000040 b4 6b 23 bf 2d 56 cc 3e 23 03 6a 3e 1d 25 05 3f
       -0.63836217 0.39909497 0.22852759 0.52009755
000050 fe a6 90 3c 70 4f 81 3e ce 0b 9c 3f 2a 8c 37 3f
       0.017657753 0.25255919 1.2191103 0.7169825
000060 ce 57 94 be c5 03 b4 bd 24 77 f5 3e ca bd bb 3e
       -0.2897324 -0.087897815 0.4794246 0.36668235
000070 5b 3e 21 bf 1c 8e 4d bf aa 87 21 be 22 1b 1a 3f
       -0.6298577 -0.80294967 -0.15774408 0.6019765
000080 a9 11 65 3d 7a 70 3d 3d a5 a9 4e 3f 05 97 72 3f
       0.055925045 0.046249844 0.80727607 0.9476169
000090 df fc 63 bf b8 c9 9c 3f ee 42 6c 3f 6b 4b fb be
       -0.89057726 1.224906 0.92289627 -0.49080977
0000a0 79 32 52 3e 63 0d 3d 3e 8b 8c 37 3e f7 3e 5c 3e
       0.20527066 0.18462138 0.17924707 0.21508394
0000b0 35 1d e6 be e7 e5 76 3e f3 4d f4 3e fd 54 3e bf
       -0.44944158 0.24111138 0.4771572 -0.7434843
0000c0 33 8e ec bd f6 10 89 3f 30 f9 09 3c e4 b6 8b bf
       -0.1155056 1.0708301 0.008421227 -1.0915189
0000d0 83 3e b8 3d 78 da 1c be 1b 56 3f 3f f8 4c f6 bf
       0.08996298 -0.15317714 0.7474076 -1.9242239
0000e0 95 b2 cb 3d 8e 42 2c be 95 1a 3b bf 72 bf 41 3f
       0.09946171 -0.16822264 -0.73087436 0.7568275
0000f0 71 a6 eb be 37 37 82 3f ee 9c 99 3f 4d 4f a2 be
       -0.46025422 1.01731 1.2001016 -0.31701127
000100 04 2f 94 bf 16 25 1a bf c0 9f b3 be e8 2c 0d bf
       -1.1576848 -0.6021284 -0.35082817 -0.55146646
000110 5c db cc be 76 70 fe bd e9 dd 9f 3f 26 8f 3d bf
       -0.40011108 -0.12423794 1.2489597 -0.7404655
000120 c6 ce b1 bf 3b c4 07 40 30 b7 ba 3f a6 92 bb be
       -1.3891227 2.121352 1.4587154 -0.3663532
000130 bf cd 9d 3f 5c 0f e8 bf bf df 0a bf 10 0b 34 3e
       1.2328414 -1.8129687 -0.5424766 0.17582345
000140 81 d0 f7 be 6e f4 ac 3f 2d ba e9 be 92 01 c9 bf
       -0.48401263 1.3512094 -0.45649853 -1.5703604
000150 3f d6 52 be 3c 61 81 3d a8 bd 69 3f 1e c2 d0 3e
       -0.20589541 0.06317374 0.9130502 0.407731
000160 3b 76 72 3f 0e 32 c5 3d 47 a1 c5 bd cd a1 88 3e
       0.94711655 0.09628688 -0.09649902 0.26685944
000170 f5 39 ab 3f 7d eb 37 3e 33 85 b3 be 41 c4 06 bf
       1.3377062 0.17960925 -0.3506256 -0.5264321
000180 12 c2 9b 3f fd 1c 22 3f 01 51 0b bf 0a 1d 64 3d
       1.21686 0.6332548 -0.5442048 0.055691756
000190 87 8e af bf 68 5c 3b 3e f8 53 97 3e 65 cb 74 3e
       -1.3715371 0.18296969 0.2955625 0.23905714
0001a0 55 7a 87 3f da 02 8d 3e e6 e5 21 3f 20 1d 15 3f
       1.0584208 0.27541238 0.6324142 0.58247566
0001b0 4d ba 2e 3f 7c 4c 3d be 31 0e 17 40 f5 11 99 3f
       0.6825302 -0.18486208 2.3602412 1.1958605
0001c0 49 7a cc be 53 72 57 40 d2 63 93 3f 54 55 c6 be
       -0.39937046 3.3663528 1.1514838 -0.38736975
0001d0 73 c0 19 c0 58 01 a2 be 1d 6a 66 be c4 ba 0f c0
       -2.4023712 -0.3164165 -0.22501417 -2.2457743
0001e0 ac b7 39 be 4e fa 6a 3d 6b 5b 70 bc db e0 ef bf
       -0.18136472 0.057367615 -0.014670233 -1.8740495
0001f0 c7 0a 49 bd 8d 76 4b 3f 5e dd ed 3e 24 cc d2 3e
       -0.049082544 0.7947777 0.46457952 0.41171372
000200 fd 07 b0 3d d9 b8 73 bf 8f 00 80 be d6 c3 03 be
       0.08595274 -0.9520393 -0.25000426 -0.12867674
000210 78 ae de be e6 2c c7 be cd 1a a1 bd 3c 39 3a bf
       -0.43492484 -0.38901442 -0.0786644 -0.7274358
000220 33 bc 81 bf 71 06 ca be a6 59 36 bf 99 c7 e8 3e
       -1.0135559 -0.3945804 -0.7123054 0.4546478
000230 2e fa 85 3f 6b 01 28 bf 5e ec 56 bf 43 2b 4a 3e
       1.0466974 -0.65627164 -0.8395442 0.19743066
000240 5e 61 d1 be de e4 15 3f 91 e5 e4 3e 72 32 91 be
       -0.40894598 0.5855235 0.44706395 -0.283588
000250 6c fd a4 bd 75 8d 22 3c 48 ec 84 be 76 6f 6a bd
       -0.08056149 0.009921421 -0.25961518 -0.057235204
000260 51 87 37 3f 42 de 33 3e 7f 87 cc be be 6a 0c 3e
       0.7169085 0.17565253 -0.39947125 0.13712594
000270 02 d9 d7 be 22 c9 e1 be 95 35 9f bf 2b 24 1c bf
       -0.4215775 -0.44098765 -1.2438227 -0.6099269
000280 57 82 94 be 8b 2f fb 3b d6 99 2f be 48 35 36 be
       -0.2900569 0.0076655797 -0.17148528 -0.17793763
000290 ee 36 01 bf 32 23 e5 be 90 fb 0e bf 14 c0 2b bf
       -0.5047444 -0.44753414 -0.55852604 -0.6708996
0002a0 09 7a e7 be a0 c5 88 3e 31 70 43 bf 0c 4f ac 3d
       -0.45210293 0.26713276 -0.76343066 0.084135145
0002b0 32 cd 70 3e 48 79 60 3f 52 0a 0a 3f 84 a6 27 3e
       0.23515776 0.8768506 0.53922 0.16372114
0002c0 c7 f4 1f be ed c7 de 3e a8 e2 9e bd b2 bb dd bd
       -0.15620719 0.43511906 -0.07758075 -0.10826816
0002d0 23 3d 0a 3e 56 76 96 3e fe 00 38 bd 76 c4 f0 bd
       0.13499884 0.29387158 -0.04492282 -0.11756222
0002e0 f0 40 80 3e c1 de 26 bd 5b 6c 08 3f 78 3e cc 3f
       0.25049543 -0.04073978 0.5329034 1.5956564
0002f0 f6 8e ba be 4d c3 c8 3d 7b bc 77 3f 56 41 e3 be
       -0.36437196 0.09802876 0.96771973 -0.44385785
000300 85 5b 68 bf 40 c0 d0 3d 0d e4 4c 3e 9e d0 90 3f
       -0.9076465 0.10192919 0.2000887 1.1313665
000310 fc 54 51 3f 2f a2 d6 be 7c a4 30 3f 3a a5 70 bf
       0.817703 -0.4192061 0.69000983 -0.94002116
000320 4d 68 3c 3f fd 47 48 3f 65 d9 f5 be 7f 9f e9 be
       0.7359665 0.78234845 -0.4801742 -0.45629498
000330 ff 8d 04 3f 21 e4 6c 3f bc e0 a7 bf 80 31 bb 3e
       0.5177917 0.925356 -1.3115458 0.36561203
000340 08 2e 33 3f 95 31 8d 3e 31 5e e5 3e 43 1d 7a be
       0.69992113 0.2757689 0.44798425 -0.24425225
000350 a5 80 85 be 01 b5 f9 bd e1 34 97 be 73 6c 98 3f
       -0.2607471 -0.12192727 -0.2953253 1.1908096
000360 36 f8 e0 3e ed bb 38 3f 73 10 6a be 75 c5 d5 3d
       0.4393937 0.7216175 -0.22857837 0.104380526
000370 dc 71 27 3f 2e 34 c5 3e 7f b0 d1 3f fd b2 82 3f
       0.6540811 0.38516372 1.6381987 1.0210873
000380 4a 8d 99 3e 24 79 61 bc 3c 8a 8f bf ab fc 9d 3e
       0.29990608 -0.013761792 -1.1214061 0.30856833
000390 f1 f1 c6 3d 53 79 40 3f 90 f9 2a 3f d9 17 4c be
       0.097141154 0.75185126 0.6678705 -0.19930972
0003a0 e0 85 78 3e ad 32 f4 3e 53 d3 99 be 49 fc 82 3d
       0.2426982 0.47694913 -0.3004404 0.06395776
0003b0 79 ec b0 bf 4f 91 6b bf 36 dd 00 3f d6 5c 58 3f
       -1.3822166 -0.920186 0.5033754 0.84516656
0003c0 aa 3b d9 be 0c b9 9e 3d 01 71 87 bf 1f a3 e5 3e
       -0.42428333 0.07750139 -1.0581361 0.44851014
0003d0 87 88 b3 3e b7 46 e0 be 2e bd fe be 3a 9e 5f be
       0.350651 -0.4380395 -0.49753708 -0.21837702
0003e0 8a 1e d4 bd 92 62 56 3f f8 a5 73 bf bf 6c 00 bf
       -0.10357387 0.83744156 -0.95175123 -0.50165933
0003f0 f3 f8 c6 3e b4 82 b4 3f 93 33 29 bf 06 75 82 bd
       0.38861808 1.4102387 -0.6609432 -0.06369977

lstm.bias_ih_l1 f4 [256]
000000 12 84 1f bf ef 76 05 bf a2 4e 5c bf 3c 4f ac bf
       -0.623109 -0.52134603 -0.86057484 -1.346168
000010 27 e6 2f bf 94 f7 19 bf c2 b8 ad bf 54 5f 87 bf
       -0.6871056 -0.601434 -1.3572009 -1.0575967
000020 3e eb 43 bf c4 a3 6f bf f4 9d 4c bf d1 a9 b8 bf
       -0.76530826 -0.9360926 -0.7992852 -1.4426824
000030 31 1c 13 bf 2e ed 88 bf 1b 93 06 bf cc 26 74 bf
       -0.5746489 -1.0697381 -0.52568215 -0.953717
000040 66 63 a2 bf 9d 2b 5d bf 47 0e 8b bf 47 6b 8a bf
       -1.2686584 -0.86394674 -1.0863732 -1.0813988
000050 2c 9b 5e bf e5 10 a5 bf 31 7f 6e bf 77 f7 f2 3d
       -0.86955523 -1.2895781 -0.9316283 0.118636064
000060 57 71 52 bf 7c 51 28 3e 4e 61 ad bf 6b 20 d1 be
       -0.8220419 0.16437334 -1.354532 -0.40845045
000070 ac 44 98 bf c5 55 3a bf 37 1e 87 be 8a e7 b8 bf
       -1.1895957 -0.72787124 -0.2639024 -1.444566
000080 8b 20 4c bf db c5 81 bf 66 f7 5b bf c7 44 29 bf
       -0.79737157 -1.0138506 -0.85924375 -0.6612057
000090 fc d8 0a 3e b5 d8 1c bf 9c af 81 bf 8c f5 7d bf
       0.13559335 -0.6126817 -1.0131717 -0.992028
0000a0 fd 21 78 bf f9 a5 9c bf 13 1c 1f bf 5e 54 43 bf
       -0.9692686 -1.2238151 -0.6215221 -0.7630061
0000b0 02 9d 8b bf 46 5d 5e bf fb bc da bd 84 5e ad be
       -1.090729 -0.86861074 -0.106805764 -0.33861172
0000c0 04 88 97 bf 5e a0 51 3f 6e 92 52 bf d3 9d 7a bf
       -1.1838384 0.81885326 -0.82254684 -0.9789707
0000d0 1d 84 74 bf ae f5 db be ac 16 87 bf 82 a6 ab 3d
       -0.9551409 -0.42960876 -1.0553794 0.08381368
0000e0 88 26 b5 bf 69 94 70 bf 5e 49 33 bf ec 33 c8 be
       -1.4152384 -0.93976456 -0.70033824 -0.39102113
0000f0 0a b1 80 bf d8 2c 52 bf 8e 11 70 be 65 a0 d6 bf
       -1.0054028 -0.82099676 -0.23444197 -1.6767699
000100 58 25 c6 be 0e 8f 1a bf 1a b4 1f bf 33 b3 3e bf
       -0.38700366 -0.60374534 -0.6238419 -0.74492186
000110 a4 c2 2e bf 5c 0a a2 3d a6 a8 77 bf 49 5e 87 bf
       -0.6826575 0.07912132 -0.9674171 -1.0575649
000120 8a 6f ca 39 01 e1 e8 be b4 f8 cc bd 7a fa 83 bf
       0.00038611545 -0.45484164 -0.10008374 -1.0310814
000130 4e e4 0c bf d0 61 12 bf 9f 47 1e bf 13 55 21 bf
       -0.55035865 -0.571805 -0.61828035 -0.6302044
000140 97 c0 46 bf 3b b1 e9 be 12 17 51 bf ea 98 34 be
       -0.7763762 -0.4564303 -0.8167583 -0.17636457
000150 ec ee f0 be cd 89 47 bf 2a 6f 36 bf f4 08 18 be
       -0.47057283 -0.7794464 -0.7126337 -0.14847165
000160 69 b0 15 bf 62 05 67 3e d3 ba 63 bf c3 d1 1f bf
       -0.58472306 0.22560647 -0.88956946 -0.62429446
000170 42 a6 30 bf 7d 30 1e bd e3 90 b7 be c8 28 79 bf
       -0.6900369 -0.03862046 -0.35852727 -0.9732785
000180 25 3c 07 bf 14 7e df be 7f 62 52 bf 4e a8 b7 be
       -0.5282615 -0.43650877 -0.82181543 -0.35870594
000190 5a 8f 75 be 1c 2f 4d bf 80 b6 02 bf 3f f3 58 bf
       -0.23980466 -0.8015001 -0.5105972 -0.84746164
0001a0 0f 90 29 bf 0e 91 41 bf 96 9c c4 bd f0 fa 98 bf
       -0.6623544 -0.7561196 -0.09600179 -1.195158
0001b0 fb 8a 5c bf d1 14 4c bf bb a9 46 bf 77 38 1e 3d
       -0.8614957 -0.79719263 -0.7760274 0.038628068
0001c0 80 2a 0e bf a4 7b df be 0c 38 bd be f8 7b 24 bf
       -0.555336 -0.43649018 -0.36956823 -0.6425166
0001d0 0b 21 39 bf f4 a7 79 be 59 a9 36 bf 21 5a 49 be
       -0.72316045 -0.24380475 -0.71352154 -0.19663288
0001e0 f8 4e 3f bf 6a 2d 2a bf 1f 00 12 bf a8 8b 38 3f
       -0.7472987 -0.66475546 -0.57031435 0.720881
0001f0 72 6e ce be 1c 88 3c be b9 7a c7 be 1f 82 99 bf
       -0.40318638 -0.18411297 -0.38960817 -1.1992835
000200 37 bd 62 bc 72 37 19 3e 2f c1 31 3e 12 36 aa 3d
       -0.013839058 0.14962557 0.1735885 0.08311094
000210 73 f3 42 be c4 b9 c9 bc 9c dc 77 3d c2 ee 89 bc
       -0.19038181 -0.024624713 0.060513124 -0.016837481
000220 12 4e 54 be ca 58 20 3e 07 71 0f 3c a2 18 e1 3c
       -0.20732906 0.1565887 0.008754975 0.027477566
000230 9e 83 e3 bd c7 d1 82 bb de e8 65 3d f1 e2 bd 3d
       -0.11109088 -0.0039922926 0.056130283 0.09271801
000240 3e c4 26 bd 6b 81 c7 3d 18 a7 53 3d 24 94 59 3e
       -0.040714495 0.097414814 0.051673025 0.21247917
000250 d8 66 dc bd 39 70 2e be de 8b 57 bd d7 27 78 bd
       -0.107618034 -0.17034997 -0.052623622 -0.06058487
000260 98 7e 73 3d 0f 65 06 bd c3 3c 16 be e7 c7 b4 3e
       0.0594469 -0.03281122 -0.14671616 0.35308763
000270 a6 7e 95 bd eb c6 c5 bc b0 3d 3b 3c 69 1b 9c 3d
       -0.07299547 -0.024142703 0.011428282 0.076224156
000280 c7 d9 f6 3d 79 a3 47 3e 4d 66 25 3c 24 2a 24 bd
       0.120532565 0.19495954 0.010095191 -0.04007925
000290 2b 9f a8 bd 6e 79 58 3d fe ff 32 be 40 59 9c bd
       -0.08233484 0.05285018 -0.17480466 -0.076342106
0002a0 0e 53 49 3e a5 66 3e 3d c4 a8 2a be 6f e0 4b 3e
       0.19660589 0.04648461 -0.16665941 0.19909833
0002b0 a4 24 a3 3d 84 ca 38 bd d9 1f f3 bd 62 37 dd 3d
       0.07965973 -0.04511501 -0.11871309 0.10801579
0002c0 f2 60 17 be eb c8 54 be f0 b4 13 3d 3e 12 0f be
       -0.14783075 -0.20779769 0.036061227 -0.13971803
0002d0 fc e8 9a 3d 58 a2 35 bc 13 5c ae bd 4b c9 2f 3d
       0.075639695 -0.011086069 -0.085136555 0.042916577
0002e0 c8 d0 a7 bd 07 65 58 3b 8e 7d 20 bd 5c 04 51 3e
       -0.08194119 0.0033019201 -0.03918224 0.20411819
0002f0 bb e5 ea 3d 93 ff 87 3d cf 9b 9f 3d 27 34 4d bd
       0.11469599 0.06640544 0.0779339 -0.050098564
000300 33 f4 6b be 62 08 97 be b7 85 54 bf d1 ce 98 bf
       -0.23042373 -0.29498583 -0.8301653 -1.1938115
000310 06 82 39 bf 47 ea 26 bf 4b 45 b7 bf f6 4d 85 bf
       -0.72464025 -0.6520123 -1.4318022 -1.0414417
000320 e3 86 16 bf 3b fb 55 bf 57 93 0e bf 47 8a bc bf
       -0.5879957 -0.8358647 -0.5569357 -1.4729699
000330 bc 44 e1 be 3e 54 70 bf 6f 66 58 bf 39 14 62 bf
       -0.43997753 -0.93878543 -0.845313 -0.8831211
000340 fe 21 97 bf 92 5c 2d bf 0f 47 8e bf dd b7 46 bf
       -1.1807249 -0.67719376 -1.1115435 -0.77624303
000350 3b ce 37 bf 50 c3 ac bf 35 7f 06 bf 22 cd 5f be
       -0.7179906 -1.3497105 -0.5253785 -0.21855596
000360 9c 2c 6d bf 02 c4 fe be 00 15 a5 bf 24 61 81 be
       -0.92646194 -0.49758917 -1.2897034 -0.25269425
000370 e4 5f 9d bf c8 cc 46 bf e5 65 04 bf ea 0f a7 bf
       -1.2294888 -0.7765622 -0.5171798 -1.3051732
000380 46 25 22 bf 4e 86 49 bf 27 32 59 bf 58 93 5c bf
       -0.63338125 -0.7872056 -0.8484215 -0.8616233
000390 be f6 1f bf ef d9 23 bf 90 3c 7a bf 10 e4 82 bf
       -0.62485874 -0.64004415 -0.9774866 -1.0225849
0003a0 ee 72 4e bf bb 64 9e bf d3 7a b5 be 7a f2 5a bf
       -0.8064412 -1.237449 -0.3544527 -0.8552624
0003b0 c8 68 a5 bf f2 79 52 bf 6f 92 bf be 01 1c f9 bd
       -1.2922602 -0.82217324 -0.37416407 -0.121635444
0003c0 57 9a 8a bf 70 bc b1 3e fe 83 47 bf de 84 79 bf
       -1.0828351 0.3471408 -0.7793578 -0.97468364
0003d0 7e 53 80 bf ed 2a c9 be 66 1e 70 bf 78 fe 63 be
       -1.002548 -0.39290562 -0.93796384 -0.22265041
0003e0 34 7f 99 bf ef b9 57 bf 6b de 61 bf fd 4b a3 be
       -1.1991944 -0.8426809 -0.8823001 -0.31893912
0003f0 41 a7 7c bf 59 ff 00 bf d1 7c d5 be 50 0f c1 bf
       -0.9869271 -0.5038963 -0.4169679 -1.5082798
